…
==================] - 7s 4ms/step - loss: 0.2682 - rounded_accuracy: 0.9490 - val_loss: 0.2685 - val_rounded_accuracy: 0.9492\nEpoch 5/5\n1719/1719 [==============================] - 7s 4ms/step - loss: 0.2664 - rounded_accuracy: 0.9510 - val_loss: 0.2671 - val_rounded_accuracy: 0.9509\n\n\n\nconv_encoder.summary()\nconv_decoder.summary()\n\nModel: \"sequential_10\"\n_________________________________________________________________\nLayer (type)                 Output Shape              Param #   \n=================================================================\nreshape_2 (Reshape)          (None, 28, 28, 1)         0         \n_________________________________________________________________\nconv2d (Conv2D)              (None, 28, 28, 16)        160       \n_________________________________________________________________\nmax_pooling2d (MaxPooling2D) (None, 14, 14, 16)        0         \n_________________________________________________________________\nconv2d_1 (Conv2D)            (None, 14, 14, 32)        4640      \n_________________________________________________________________\nmax_pooling2d_1 (MaxPooling2 (None, 7, 7, 32)          0         \n_________________________________________________________________\nconv2d_2 (Conv2D)            (None, 7, 7, 64)          18496     \n_________________________________________________________________\nmax_pooling2d_2 (MaxPooling2 (None, 3, 3, 64)          0         \n=================================================================\nTotal params: 23,296\nTrainable params: 23,296\nNon-trainable params: 0\n_________________________________________________________________\nModel: \"sequential_11\"\n_________________________________________________________________\nLayer (type)                 Output Shape              Param #   \n=================================================================\nconv2d_transpose (Conv2DTran (None, 7, 7, 32)          18464     \n_________________________________________________________________\nconv2d_transpose_1 (Conv2DTr (None, 14, 14, 16)        4624      \n_________________________________________________________________\nconv2d_transpose_2 (Conv2DTr (None, 28, 28, 1)         145       \n_________________________________________________________________\nreshape_3 (Reshape)          (None, 28, 28)            0         \n=================================================================\nTotal params: 23,233\nTrainable params: 23,233\nNon-trainable params: 0\n_________________________________________________________________\n\n\n\nshow_reconstructions(conv_ae)\nplt.show()\n\nWARNING:tensorflow:5 out of the last 161 calls to &lt;function Model.make_predict_function.&lt;locals&gt;.predict_function at 0x7fe
…
denoising_encoder = keras.models.Sequential([\n    keras.layers.GaussianNoise(0.1, input_shape=[32, 32, 3]),\n    keras.layers.Conv2D(32, kernel_size=3, padding=\"same\", activation=\"relu\"),\n    keras.layers.MaxPool2D(),\n    keras.layers.Flatten(),\n    keras.layers.Dense(512, activation=\"relu\"),\n])\n\n\ndenoising_encoder.summary()\n\nModel: \"sequential_40\"\n_________________________________________________________________\nLayer (type)                 Output Shape              Param #   \n=================================================================\ngaussian_noise_3 (GaussianNo (None, 32, 32, 3)         0         \n_________________________________________________________________\nconv2d_5 (Conv2D)            (None, 32, 32, 32)        896       \n_________________________________________________________________\nmax_pooling2d_3 (MaxPooling2 (None, 16, 16, 32)        0         \n_________________________________________________________________\nflatten_11 (Flatten)         (None, 8192)              0         \n_________________________________________________________________\ndense_46 (Dense)             (None, 512)               4194816   \n=================================================================\nTotal params: 4,195,712\nTrainable params: 4,195,712\nNon-trainable params: 0\n_________________________________________________________________\n\n\n\ndenoising_decoder = keras.models.Sequential([\n    keras.layers.Dense(16 * 16 * 32, activation=\"relu\", input_shape=[512]),\n    keras.layers.Reshape([16, 16, 32]),\n    keras.layers.Conv2DTranspose(filters=3, kernel_size=3, strides=2,\n                                 padding=\"same\", activation=\"sigmoid\")\n])\n\n\ndenoising_decoder.summary()\n\nModel: \"sequential_41\"\n_________________________________________________________________\nLayer (type)                 Output Shape              Param #   \n=================================================================\ndense_47 (Dense)             (None, 8192)              4202496   \n_________________________________________________________________\nreshape_13 (Reshape)         (None, 16, 16, 32)        0         \n_________________________________________________________________\nconv2d_transpose_5 (Conv2DTr (None, 32, 32, 3)         867       \n=================================================================\nTotal params: 4,203,363\nTrainable params: 4,203,363\nNon-trainable params: 0\n_________________________________________________________________\n\n\n\ndenoising_ae = keras.models.Sequential([denoising_encoder, denoising_decoder])\ndenoising_ae.compile(loss=\"binary_crossentropy\", optimizer=keras.optimizers.Nadam(),\n    
…
s: 0.1539 - val_accuracy: 0.9706\nEpoch 19/20\n7/7 [==============================] - 0s 10ms/step - loss: 0.1268 - accuracy: 0.9900 - val_loss: 0.1482 - val_accuracy: 0.9716\nEpoch 20/20\n7/7 [==============================] - 0s 14ms/step - loss: 0.1208 - accuracy: 0.9900 - val_loss: 0.1431 - val_accuracy: 0.9716\n\n\n\nmodel_B.summary()\n\nModel: \"sequential_7\"\n_________________________________________________________________\nLayer (type)                 Output Shape              Param #   \n=================================================================\nflatten_7 (Flatten)          (None, 784)               0         \n_________________________________________________________________\ndense_224 (Dense)            (None, 300)               235500    \n_________________________________________________________________\ndense_225 (Dense)            (None, 100)               30100     \n_________________________________________________________________\ndense_226 (Dense)            (None, 50)                5050      \n_________________________________________________________________\ndense_227 (Dense)            (None, 50)                2550      \n_________________________________________________________________\ndense_228 (Dense)            (None, 50)                2550      \n_________________________________________________________________\ndense_229 (Dense)            (None, 1)                 51        \n=================================================================\nTotal params: 275,801\nTrainable params: 275,801\nNon-trainable params: 0\n_________________________________________________________________\n\n\n\nmodel_A = keras.models.load_model(\"my_model_A.h5\")\nmodel_B_on_A = keras.models.Sequential(model_A.layers[:-1])\nmodel_B_on_A.add(keras.layers.Dense(1, activation=\"sigmoid\
…
yers.AlphaDropout):\n    def call(self, inputs):\n        return super().call(inputs, training=True)\n\n\ntf.random.set_seed(42)\nnp.random.seed(42)\n\n\nmc_model = keras.models.Sequential([\n    MCAlphaDropout(layer.rate) if isinstance(layer, keras.layers.AlphaDropout) else layer\n    for layer in model.layers\n])\n\n\nmc_model.summary()\n\nModel: \"sequential_21\"\n_________________________________________________________________\nLayer (type)                 Output Shape              Param #   \n=================================================================\nflatten_18 (Flatten)         (None, 784)               0         \n_________________________________________________________________\nmc_alpha_dropout (MCAlphaDro (None, 784)               0         \n_________________________________________________________________\ndense_263 (Dense)            (None, 300)               235500    \n_________________________________________________________________\nmc_alpha_dropout_1 (MCAlphaD (None, 300)               0         \n_________________________________________________________________\ndense_264 (Dense)            (None, 100)               30100     \n_________________________________________________________________\nmc_alpha_dropout_2 (MCAlphaD (None, 100)               0         \n_________________________________________________________________\ndense_265 (Dense)            (None, 10)                1010      \n=================================================================\nTotal params: 266,610\nTrainable params: 266,610\nNon-trainable params: 0\n_________________________________________________________________\n\n\n\noptimizer = keras.optimizers.SGD(learning_rate=0.01, momentum=0.9, nesterov=True)\nmc_model.compile(loss=\"sparse_categorical_crossentropy\", optimizer=optimizer, metrics=[\"accuracy\"])\n\n\nmc_model.set_weights(model.get_weights())\n\n이제 MC 드롭아웃을 모델에 사용할 수 있습니다:\n\nnp.round(np.mean([mc_model.predict(X_test_scaled[:1]) for sample in range(100)], axis=0), 2)\n\narray([[0.  , 0.  , 0.  , 0.  , 0.  , 0.16, 0.  , 0.22, 0.  , 0.62]],\n      dtype=float32)"
…
 in [64] * 3 + [128] * 4 + [256] * 6 + [512] * 3:\n    strides = 1 if filters == prev_filters else 2\n    model.add(ResidualUnit(filters, strides=strides))\n    prev_filters = filters\nmodel.add(keras.layers.GlobalAvgPool2D())\nmodel.add(keras.layers.Flatten())\nmodel.add(keras.layers.Dense(10, activation=\"softmax\"))\n\n\nmodel.summary()\n\nModel: \"sequential_1\"\n_________________________________________________________________\nLayer (type)                 Output Shape              Param #   \n=================================================================\nconv2d_8 (Conv2D)            (None, 112, 112, 64)      9408      \n_________________________________________________________________\nbatch_normalization (BatchNo (None, 112, 112, 64)      256       \n_________________________________________________________________\nactivation (Activation)      (None, 112, 112, 64)      0         \n_________________________________________________________________\nmax_pooling2d_4 (MaxPooling2 (None, 56, 56, 64)        0         \n_________________________________________________________________\nresidual_unit (ResidualUnit) (None, 56, 56, 64)        74240     \n_________________________________________________________________\nresidual_unit_1 (ResidualUni (None, 56, 56, 64)        74240     \n_________________________________________________________________\nresidual_unit_2 (ResidualUni (None, 56, 56, 64)        74240     \n_________________________________________________________________\nresidual_unit_3 (ResidualUni (None, 28, 28, 128)       230912    \n_________________________________________________________________\nresidual_unit_4 (ResidualUni (None, 28, 28, 128)       295936    \n_________________________________________________________________\nresidual_unit_5 (ResidualUni (None, 28, 28, 128)       295936    \n_________________________________________________________________\nresidual_unit_6 (ResidualUni (None, 28, 28, 128)       295936    \n_________________________________________________________________\nresidual_unit_7 (ResidualUni (None, 14, 14, 256)       920576    \n_________________________________________________________________\nresidual_unit_8 (ResidualUni (None, 14, 14, 256)       1181696   \n_________________________________________________________________\nresidual_unit_9 (ResidualUni (None, 14, 14, 256)       1181696   \n_________________________________________________________________\nresidual_unit_10 (ResidualUn (None, 14, 14, 256)       1181696   \n_________________________________________________________________\nresidual_unit_11 (ResidualUn (None, 14, 14, 256)       1181696   \n_________________________________________________________________\nresidual_unit_12 (ResidualUn (None, 14, 14, 256)       1181696   \n_________________________________________________________________\nresidual_unit_13 (ResidualUn (None, 7, 7, 512)         3676160   \n_________________________________________________________________\nresidual_unit_14 (ResidualUn (None, 7, 7, 512)         4722688   \n_________________________________________________________________\nresidual_unit_15 (ResidualUn (None, 7, 7, 512)         4722688   \n_________________________________________________________________\nglobal_average_pooling2d_1 ( (None, 512)               0         \n_________________________________________________________________\nflatten_1 (Flatten)          (None, 512)               0         \n_________________________________________________________________\ndense_3 (Dense)              (None, 10)                5130      \n=================================================================\nTotal params: 21,306,826\nTrainable params: 21,289,802\nNon-trainable params: 17,024\n_________________________________________________________________"
  },
  {
    "objectID": "Machine_Learning/14_deep_computer_vision_with_cnns.html#사전-훈련된-모델-사용하기",
    "href": "Machine_Learning/14_deep_computer_vision_with_cnns.html#사전-훈련된-모델-사용하기",
…
